Day04/pong_model.tflite (tflite, 3868 bytes, 4 tensors)

arith.constant f4 [3, 64]
000000 b4 60 37 bd 46 a7 d2 be f0 b3 a8 3d d6 bf eb be
       -0.044769958 -0.41143245 0.08237445 -0.46044797
000010 48 85 b4 3c 63 e7 89 3e 01 bd cc bd 98 68 ef 3c
       0.02203621 0.26934347 -0.09996987 0.029224679
000020 d8 1c 7f 3d 8f b6 44 3e 27 96 0f 3d 4c 16 a0 3d
       0.062283367 0.19210266 0.035055306 0.07816753
000030 a2 51 81 3e 14 b0 c7 3e 21 64 6c bd 16 67 89 3d
       0.25257593 0.39001524 -0.057712678 0.06709115
000040 77 c7 13 3e b8 c1 88 be 9e f1 f4 3d 7f 72 d4 3d
       0.14431559 -0.26710296 0.11960147 0.10373401
000050 db 41 4a be 13 06 5a 3d d3 c9 16 3e 4c 91 1e 3d
       -0.19751684 0.05322845 0.14725427 0.038712785
000060 d0 49 15 3d b5 f0 d1 bc ea ac b0 3e ae 11 d1 3d
       0.036447346 -0.025627473 0.34506923 0.1020845
000070 36 e6 0b 3e b8 64 b8 bc fd ed a7 3e 01 f0 d1 bc
       0.13662037 -0.022508964 0.32798758 -0.025627138
000080 b3 37 7a 3d 52 a6 41 3e b0 fb 82 bd 98 52 ae bc
       0.061088275 0.18911102 -0.06395662 -0.021279618
000090 b1 2f 03 be 18 67 10 3d f7 15 84 3e 01 78 15 bf
       -0.12811162 0.035254568 0.25798008 -0.58386236
0000a0 7e 72 1b 3d ac 83 ed 3e 3d f6 e2 bd f6 e2 e9 bd
       0.037950985 0.4638952 -0.110821225 -0.114202425
0000b0 a0 89 b2 3c 39 39 95 3e 14 39 77 3e 85 1e 33 3d
       0.02179414 0.2914522 0.24142867 0.043730278
0000c0 f2 fa ec 3e d1 a1 f5 3e c4 c5 00 bf e6 87 be bd
       0.46285206 0.4797502 -0.50301766 -0.09303264
0000d0 d8 a0 d1 bd 78 7e 28 bd d4 54 4f 3e fa a3 f1 be
       -0.10235757 -0.041136235 0.20247203 -0.47195417
0000e0 5e 47 b3 bd 5d 57 0b be c0 ce 98 bc 2a a8 7f be
       -0.087538466 -0.13607545 -0.018653274 -0.24966493
0000f0 14 55 f8 3c 40 c0 fb bc c0 85 9c bd e4 a9 64 bd
       0.030314006 -0.03073132 -0.07642698 -0.055826083
000100 96 57 98 3d b8 45 f2 be 44 28 72 3d 4c 25 0b bf
       0.07438581 -0.47318816 0.05912043 -0.54353786
000110 a0 1a d2 bd 34 13 70 3e 6a ea 8b be b8 48 47 3d
       -0.102589846 0.23444825 -0.2732728 0.048653334
000120 61 80 c8 bd 2b de d3 3d a8 05 8a bd 52 49 b1 3d
       -0.09790111 0.103451096 -0.0673936 0.08656563
000130 4a ee 92 3e 87 18 89 3e 21 ee 1c bd c7 8f f3 bd
       0.28697425 0.26776525 -0.038313035 -0.11892658
000140 a0 7b 54 3e 25 e0 b7 be 80 98 44 bb 25 10 c8 3d
       0.20750284 -0.35913196 -0.0029998124 0.09768704
000150 b6 cb 24 be 85 f8 c4 bd 8c fa fe 3d 07 c1 a9 3d
       -0.16093335 -0.09617714 0.12450132 0.0828877
000160 30 ed 17 bd 9c 3f 4d bb ca 6e 9b 3e fb a0 f2 ba
       -0.037091434 -0.0031318432 0.30357963 -0.0018511111
000170 a1 c8 86 3e f0 f8 24 bc 92 f4 cc 3e 71 86 b5 3c
       0.26324943 -0.010069117 0.40030342 0.022158833
000180 51 50 89 bd 3f 13 dc 3e c0 00 39 bb 66 3e fc 3d
       -0.06704772 0.42983434 -0.0028229207 0.12316589
000190 68 51 b1 3c f4 f1 48 3d 1d 03 b2 3e 40 ce c9 be
       0.021645263 0.04905887 0.34768 -0.3941517
0001a0 ac 43 3f 3d e9 ee e2 3e 55 d2 a1 bd 28 ad ee bd
       0.046695396 0.443229 -0.07901446 -0.11654121
0001b0 00 1d 61 bb 60 16 db 3e b7 b2 8e 3e bd 18 c0 bd
       -0.003434956 0.42790508 0.27870724 -0.093797185
0001c0 c2 8f e6 3e ed 80 06 3f 7e 70 1e bf 2c 83 b5 3c
       0.45031554 0.52540475 -0.618904 0.022157274
0001d0 64 37 9c bd 84 cb a6 bd 91 fc 02 3e ec a0 d0 be
       -0.076277524 -0.08144286 0.12791659 -0.40747774
0001e0 bd d3 30 3d 18 c9 61 bc 40 9c 63 3c d5 c6 d7 bd
       0.04317068 -0.013780855 0.013892233 -0.10535971
0001f0 ed 5a b2 bb 90 db 51 3c 4c 4c 9c 3d 20 e0 f2 bd
       -0.005442968 0.012808695 0.0763174 -0.11859155
000200 b6 67 90 3d b3 44 60 be 3c 28 9b bd de 14 0f bf
       0.07051031 -0.21901207 -0.075760335 -0.55891216
000210 b6 34 b8 bd 04 68 a5 bc b4 c4 18 bd 34 bd 7f 3d
       -0.08994429 -0.0201912 -0.037296966 0.062436298
000220 76 0c 4e 3d 6b a0 4f 3e d0 8f f0 3d 40 32 d2 3b
       0.050304852 0.20276038 0.1174618 0.0064146817
000230 de ea 06 3f 0d 03 f7 3e c5 29 9a 3c c0 c3 89 bc
       0.5270213 0.48244515 0.018818745 -0.016816974
000240 2c 04 4f 3e 40 4c 01 bf 80 3e 70 3b 9a 03 2f 3e
       0.20216435 -0.50506973 0.0036658347 0.17091218
000250 5a 8e 89 be 2f c9 c3 bd f1 8b 31 3e 18 bc 9d 3d
       -0.26866418 -0.09559857 0.1733854 0.07701892
000260 f8 9c 31 3d 38 fa c4 bd 24 8b 74 3e fa c7 03 3c
       0.043362588 -0.09618038 0.23881203 0.008043284
000270 88 4c 88 3e 78 75 e5 3c 69 26 ce 3e fa 4e a3 bd
       0.2662089 0.028010115 0.4026368 -0.07974048
000280 f8 f6 59 3d af 51 3b 3f 0c e3 0c 3d a0 00 64 3c
       0.053214043 0.73171514 0.034396216 0.013916165
000290 71 9c a4 3d 5e ed ea bd 8a 25 91 3e 7f 72 be be
       0.08037651 -0.114710554 0.28348953 -0.3719673
0002a0 83 0e af 3d 43 7b 8d 3e 01 3a 90 bc b4 27 df bd
       0.0854769 0.27633104 -0.017605783 -0.10896245
0002b0 28 7c 17 bd bb 91 4d 3e 4f 10 15 3e 30 c9 be 3c
       -0.03698364 0.20075123 0.14557002 0.023289293
0002c0 29 48 7d 3e 56 fd 9d 3e 58 96 e9 be d5 16 b7 bd
       0.24734558 0.30857342 -0.45622516 -0.08939902
0002d0 8c b0 6c bd 88 75 5d bd 94 3b af 3e d3 e2 0b bf
       -0.057785556 -0.054067165 0.34225142 -0.5464298
0002e0 5f bb f0 bc ca 70 ab bd 90 d7 fc 3d a0 f0 e4 bd
       -0.02938622 -0.08371122 0.12345803 -0.11178708
0002f0 82 06 06 be 2c 05 b0 3d f4 06 26 3d 1c 95 98 3d
       -0.1308842 0.085947365 0.040533975 0.07450315

sequential_3_1/dense_10_1/BiasAdd/ReadVariableOp f4 [3]
000000 37 0c a4 3d 97 3e db 3d e7 58 68 3d
       0.08010142 0.107052974 0.05672541

sequential_3_1/dense_9_1/BiasAdd/ReadVariableOp f4 [64]
000000 52 56 c0 be 39 64 50 3e c4 21 df be b1 14 db 3e
       -0.37565857 0.20350732 -0.4358045 0.42789224
000010 65 bb c2 be bf 8f 03 3d 5a c2 d7 bc 75 96 26 bd
       -0.38033596 0.03211951 -0.026337791 -0.04067083
000020 94 49 9b 3e 0e d1 59 be a7 ae 69 3b 58 81 df be
       0.30329573 -0.21271154 0.003565708 -0.4365337
000030 fb a1 6f 3e 9a a7 95 3e 29 64 91 bc 1f 81 89 3e
       0.23401634 0.29229432 -0.017747955 0.26856324
000040 61 13 cb 3e 51 67 a8 bd 44 4e 0c be 63 8a b4 3d
       0.39663222 -0.08222831 -0.13701731 0.08815458
000050 44 47 e6 bd 0b 92 91 3e 79 5f a8 3e cd 59 0f be
       -0.112440616 0.28431734 0.3288534 -0.139991
000060 44 3e 68 be 67 84 65 3e a3 07 02 3d b6 42 91 3e
       -0.22680002 0.22413789 0.031745564 0.2837121
000070 41 7a 97 3e 5c 25 e4 be f0 c1 fa 3e 72 53 92 3e
       0.2958546 -0.44559753 0.48976088 0.2857929
000080 2e 00 aa 3d 7a bf 43 3e 1b 47 b3 be 70 73 9d be
       0.083008155 0.19116011 -0.35015187 -0.30752134
000090 72 95 5c 3e f6 6e ba be fe 7d b1 3e 34 d0 c9 be
       0.21541384 -0.3641278 0.34666437 -0.3941666
0000a0 0f 41 b4 be 2d a9 16 3e 17 88 ee bb 8b 36 cd be
       -0.35205886 0.14712973 -0.007279407 -0.40080675
0000b0 bd 13 dc be 88 78 92 be 19 0a de be 08 f1 d4 3d
       -0.4298381 -0.28607583 -0.4336708 0.103975356
0000c0 a5 91 c9 3e b8 b6 00 3e b2 99 b6 bc fa f5 c0 3e
       0.3936893 0.12569702 -0.022290085 0.37687665
0000d0 88 1d b4 3e 5b 67 89 be 8e 3b 61 3e 71 51 9d 3e
       0.3517878 -0.26836666 0.21995375 0.30726197
0000e0 9b 71 26 3e 09 0f 22 be 62 fc a0 be 56 37 10 be
       0.16254275 -0.15826048 -0.31442553 -0.14083609
0000f0 89 b1 89 3e 18 a5 e3 be 18 aa dc be af 38 7c be
       0.2689326 -0.44461894 -0.4309852 -0.24630998

sequential_3_1/dense_9_1/MatMul f4 [64, 5]
000000 17 38 f1 bd 8d cd 19 be 34 3f a1 3e 82 29 31 be
       -0.117782764 -0.15019818 0.31493533 -0.1730099
000010 f4 74 e2 be 2a 18 81 3e ca 16 0f bf 47 78 b8 3d
       -0.44229853 0.25213748 -0.5589415 0.09007316
000020 5e ff 65 3e 8b 4d 4a bf c6 26 77 bd 29 71 c3 be
       0.22460696 -0.7902457 -0.06033971 -0.38172272
000030 be 46 74 3e c8 53 81 bd 5c c6 d9 3e 1b e0 fd bc
       0.23855111 -0.06314808 0.4253415 -0.03099065
000040 2b 81 1c bf 06 92 e8 bd ff 0e d9 bf cf f4 27 bf
       -0.61134595 -0.11355977 -1.6957701 -0.65607923
000050 df 3c 92 be f7 e4 af be c4 c0 a6 be 75 09 8f be
       -0.28562066 -0.34354374 -0.32568944 -0.27936903
000060 55 4e 86 3e 03 28 bf 3e 6d 46 81 be ee 2f 08 bd
       0.26231638 0.37335214 -0.25249043 -0.033248834
000070 ed dc 3b 3f 2e 6c 3e bf 14 2d 05 be 06 e8 3f be
       0.7338398 -0.7438382 -0.13005477 -0.18740854
000080 eb 05 d0 3e 76 b4 5e be 34 1e ff 3d ba ae 70 be
       0.40629515 -0.21748528 0.12456933 -0.23504153
000090 87 29 5a be 6c 34 ce 3c 1b 80 f9 3d 61 0f 43 3e
       -0.21304904 0.025171481 0.12182637 0.19048835
0000a0 88 bd c4 3e bb e1 24 3b 74 b9 2d be 70 bc 41 be
       0.3842585 0.002515896 -0.16965276 -0.1891954
0000b0 43 55 6c be 61 19 5e be 64 e1 6c be d9 4e d5 3e
       -0.230794 -0.21689369 -0.23132855 0.41661718
0000c0 65 49 18 bf 4d 7a 45 3e c8 bc 93 3e cd b3 a7 3d
       -0.5948699 0.19284935 0.28854966 0.08188591
0000d0 13 42 a7 3e a7 86 7b be 7c 16 a9 be 03 7f 22 3e
       0.32667598 -0.24563085 -0.33024967 0.15868764
0000e0 00 79 57 be 22 bf ba be b6 c8 3c 3e d7 1c c3 3d
       -0.21042252 -0.36473948 0.1843594 0.09526985
0000f0 17 37 c4 be 6e 19 5f 3d ff fd 95 be d5 e4 52 3e
       -0.3832328 0.05446761 -0.29295346 0.20595105
000100 35 ad bb 3d f2 f5 8a be 6d 15 2c bd ce 5c 89 be
       0.09163896 -0.27140766 -0.04201262 -0.26828617
000110 90 ac 86 3e 74 60 71 bf 20 05 8e 3e 5f a7 db 3e
       0.2630353 -0.942878 0.27738285 0.42901132
000120 1f ad a3 3e 69 eb 22 be 47 6a 79 3e c7 f8 ed bd
       0.31968018 -0.15910114 0.24356948 -0.11619716
000130 b4 81 98 3c 85 96 53 3e 21 f7 b1 bd 2d 57 ad 3e
       0.018616535 0.20662887 -0.08689714 0.33855572
000140 28 05 ab 3e 73 eb 07 bf a4 e1 3b 3e 39 18 ad 3e
       0.3340237 -0.5309364 0.18347794 0.33807543
000150 03 1d 35 bf f1 d2 e2 3e 96 09 8a bb 2e 10 b1 be
       -0.70747393 0.4430156 -0.0042125685 -0.34582657
000160 16 1f 57 bf 4f 5d 07 3f bb 2d d8 bd 63 be ec 3d
       -0.8403181 0.5287675 -0.105555974 0.11559751
000170 30 5c 5a bd e7 3b 84 be 5f ea 1a be 86 cc ec 3e
       -0.053310573 -0.25826952 -0.15128468 0.4624979
000180 e0 35 24 be 2a 51 b2 3e b4 e9 91 3e 7d 2a aa bf
       -0.16036177 0.34827548 0.28498614 -1.3294216
000190 55 49 86 3e dd 54 bc be 5e e3 c5 3e 9d 17 84 bf
       0.26227823 -0.36783496 0.3865003 -1.0319706
0001a0 6d 26 8e be 15 61 4e be fa 44 c8 3e 5d 02 02 be
       -0.27763692 -0.20154221 0.39115125 -0.12696214
0001b0 c7 91 b9 3e e5 90 48 3e 07 8f 95 3e 44 e6 33 be
       0.36244032 0.19586523 0.29210684 -0.17568308
0001c0 ff 48 b1 be cc ff 0e 3e 2d 49 ac bf 86 5f b6 3e
       -0.34626004 0.13964766 -1.3459831 0.35619754
0001d0 13 91 8d 3e e7 9f 97 3d 2a e1 06 3e 61 b8 77 bf
       0.27649745 0.07403546 0.13171831 -0.96765715
0001e0 de f6 3b be a7 b9 f5 bd ed c0 cb bd da 7e c4 3e
       -0.18355891 -0.11998301 -0.09948907 0.3837803
0001f0 df 9b 8e be 46 5f bc be 70 53 9e 3e fa 7e d2 3e
       -0.27853295 -0.36791438 0.30923033 0.411125
000200 6c c3 5a 3d 36 3a 00 3f 15 78 69 3e 48 5e 57 be
       0.053409025 0.5008882 0.22799714 -0.21032059
000210 06 44 2e 3e 81 b2 c9 bd 51 b3 4c bf 78 f5 cc 3e
       0.17018136 -0.098485 -0.79961115 0.40031028
000220 2d 66 34 3a 68 09 8b be c2 7d 80 3e 98 09 85 bf
       0.00068816805 -0.27155614 0.25095946 -1.0393553
000230 42 01 fb 3e ac db c9 be b3 7a 94 bd 80 5f 37 3d
       0.49024397 -0.3942541 -0.072499655 0.04476881
000240 5d fa 6f bf b3 c0 0d 3e 81 b5 ba be 10 97 9e be
       -0.937414 0.1384304 -0.36466601 -0.30974627
000250 09 bd e7 bd c6 72 2d 3d 35 81 1a bf 51 28 74 be
       -0.113153525 0.042345785 -0.60353404 -0.23843504
000260 f8 63 c5 bd 1f fa 99 be 9c 86 8a be 8d cb 81 3e
       -0.09638208 -0.3007364 -0.27055824 0.2535061
000270 03 4d 65 3e 33 22 d1 3e d2 b4 ac 3d df ed 78 3d
       0.22392659 0.40846404 0.08432926 0.060773727
000280 37 45 6a 3e a0 08 9a 3e c6 fb b0 3c 1e 6e 60 be
       0.22877966 0.30084705 0.02160443 -0.21917006
000290 93 be e2 bd 4d e9 f9 ba e9 41 34 be ff 60 9a bc
       -0.110715054 -0.0019066721 -0.17603268 -0.01884508
0002a0 7a ff ab 3d d2 f8 d0 be 90 83 88 3e 2a 05 53 be
       0.08398338 -0.40814835 0.26662874 -0.20607439
0002b0 a8 81 06 3d 25 04 a0 3e b8 79 dd be df 22 c7 be
       0.032838494 0.31253162 -0.43256927 -0.38893792
0002c0 5b 63 76 3e e6 34 d3 be be cd 53 be 50 ba 95 3d
       0.24061339 -0.41251296 -0.20683953 0.07310927
0002d0 1d 35 59 3e aa 93 93 3e 69 98 5a be cc 61 e0 be
       0.21211667 0.28823596 -0.21347202 -0.43824613
0002e0 6f 18 80 be 78 05 0b 3e da 30 87 3c c1 1d bb be
       -0.2501864 0.13576305 0.016502786 -0.36546138
0002f0 69 15 38 3d e9 f3 ae 3e 36 56 b2 3e 7b 51 d5 be
       0.044942293 0.34170464 0.348314 -0.41663727
000300 93 f0 51 bd 65 75 e5 3d 20 94 9c bf cf e9 c5 3e
       -0.05125482 0.11204032 -1.2232704 0.38654944
000310 2d 7d d6 3e 0e 54 ca be ef 09 d7 be 8c 20 c7 3e
       0.41892377 -0.39517254 -0.41999766 0.3889202
000320 ae ab ed 3e 02 84 92 3e 0f c9 8e 3e 30 bd 58 3e
       0.46420044 0.2861634 0.2788777 0.2116592
000330 0d 20 a5 bf 44 31 80 bd 2c 20 1e 3e 50 79 ef be
       -1.2900406 -0.06259397 0.1544196 -0.46772242
000340 c3 59 36 3f be 1c 86 bf 59 e7 5b be f3 75 72 3d
       0.71230716 -1.0477521 -0.21474971 0.059194516
000350 d5 9e 81 3e 69 22 c5 3d a7 08 03 3f 83 10 2c 3e
       0.25316492 0.09625704 0.5118508 0.16803174
000360 97 9f 49 3e 28 d2 61 be 7a 57 97 be 75 44 8c 3e
       0.19689785 -0.22052824 -0.29558927 0.2739598
000370 4e b5 5e be 9d fc 53 be 12 e6 8d be b2 90 a4 be
       -0.2174885 -0.20701833 -0.27714592 -0.32141644
000380 1e 9f 8d be 93 0b fe 3e b5 5f f0 bd 83 17 ca 3e
       -0.2766046 0.49618205 -0.11737005 0.39471063
000390 f0 fc 53 3e 28 1c 1a bf bd ed 8a 3d bc f8 74 3e
       0.20701957 -0.60199213 0.06783626 0.2392301
0003a0 aa ee aa 3e 60 f5 c1 be b2 17 1d bf 2e b2 fc 3d
       0.3338521 -0.3788252 -0.6136428 0.123386726
0003b0 d3 0f 95 3e fd e2 cc 3e eb 92 9d 3e fd 74 99 3e
       0.29113635 0.40016928 0.30776152 0.29972067
0003c0 94 09 85 bd 08 85 c0 be 27 c6 75 3d 64 a7 ec 3e
       -0.064959675 -0.37601495 0.060003426 0.4622146
0003d0 a6 b0 97 bf ab 25 f6 3d fb c1 ce be 0a 8f c0 3e
       -1.1850784 0.12018903 -0.4038237 0.3760913
0003e0 bb 41 6b be a0 0f 33 bf e0 22 e4 3e a8 93 03 bf
       -0.22974293 -0.69945717 0.44557858 -0.5139718
0003f0 b1 63 1c 3e 54 43 55 bf d6 b5 b2 bf 72 f0 e8 bd
       0.15272404 -0.8330586 -1.3961742 -0.11373986
